…
split:valid, label:none, data shape:(1276, 140, 70)
split:valid, label:abusive, data shape:(1876, 140, 70)
split:train, label:none, data shape:(10209, 140, 70)
split:train, label:abusive, data shape:(15010, 140, 70)
vocabulary loaded with 13859 words
word_len: 40, char_len: 140
____________________________________________________________________________________________________
Layer (type)                     Output Shape          Param #     Connected to                     
====================================================================================================
input_1 (InputLayer)             (None, 40)            0                                            
____________________________________________________________________________________________________
embedding_1 (Embedding)          (None, 40, 300)       4157700     input_1[0][0]                    
____________________________________________________________________________________________________
input_2 (InputLayer)             (None, 140, 70)       0                                            
____________________________________________________________________________________________________
conv1d_1 (Conv1D)                (None, 40, 50)        15050       embedding_1[0][0]                
____________________________________________________________________________________________________
conv1d_2 (Conv1D)                (None, 39, 50)        30050       embedding_1[0][0]                
____________________________________________________________________________________________________
conv1d_3 (Conv1D)                (None, 38, 50)        45050       embedding_1[0][0]                
____________________________________________________________________________________________________
conv1d_4 (Conv1D)                (None, 138, 50)       10550       input_2[0][0]                    
____________________________________________________________________________________________________
conv1d_5 (Conv1D)                (None, 137, 50)       14050       input_2[0][0]                    
____________________________________________________________________________________________________
conv1d_6 (Conv1D)                (None, 136, 50)       17550       input_2[0][0]                    
____________________________________________________________________________________________________
max_pooling1d_1 (MaxPooling1D)   (None, 1, 50)         0           conv1d_1[0][0]                   
____________________________________________________________________________________________________
max_pooling1d_2 (MaxPooling1D)   (None, 1, 50)         0           conv1d_2[0][0]                   
____________________________________________________________________________________________________
max_pooling1d_3 (MaxPooling1D)   (None, 1, 50)         0           conv1d_3[0][0]                   
____________________________________________________________________________________________________
max_pooling1d_4 (MaxPooling1D)   (None, 1, 50)         0           conv1d_4[0][0]                   
____________________________________________________________________________________________________
max_pooling1d_5 (MaxPooling1D)   (None, 1, 50)         0           conv1d_5[0][0]                   
____________________________________________________________________________________________________
max_pooling1d_6 (MaxPooling1D)   (None, 1, 50)         0           conv1d_6[0][0]                   
____________________________________________________________________________________________________
flatten_1 (Flatten)              (None, 50)            0           max_pooling1d_1[0][0]            
____________________________________________________________________________________________________
flatten_2 (Flatten)              (None, 50)            0           max_pooling1d_2[0][0]            
____________________________________________________________________________________________________
flatten_3 (Flatten)              (None, 50)            0           max_pooling1d_3[0][0]            
____________________________________________________________________________________________________
flatten_4 (Flatten)              (None, 50)            0           max_pooling1d_4[0][0]            
____________________________________________________________________________________________________
flatten_5 (Flatten)              (None, 50)            0           max_pooling1d_5[0][0]            
____________________________________________________________________________________________________
flatten_6 (Flatten)              (None, 50)            0           max_pooling1d_6[0][0]            
____________________________________________________________________________________________________
concatenate_1 (Concatenate)      (None, 300)           0           flatten_1[0][0]                  
                                                                   flatten_2[0][0]                  
                                                                   flatten_3[0][0]                  
                                                                   flatten_4[0][0]                  
                                                                   flatten_5[0][0]                  
                                                                   flatten_6[0][0]                  
____________________________________________________________________________________________________
dropout_1 (Dropout)              (None, 300)           0           concatenate_1[0][0]              
____________________________________________________________________________________________________
dense_1 (Dense)                  (None, 2)             602         dropout_1[0][0]                  
====================================================================================================
Total params: 4,290,602
Trainable params: 4,290,602
Non-trainable params: 0
____________________________________________________________________________________________________
Train on 15010 samples, validate on 1876 samples
2017-07-17 10:59:01.342334: W tensorflow/core/platform/cpu_feature_guard.cc:45] The TensorFlow library wasn't compiled to use SSE4.1 instructions, but these are available on your machine and could speed up CPU computations.
…
